
```
--
Model: "sequential_3"
_________________________________________________________________
Layer (type)                 Output Shape              Param #   
=================================================================
embedding_3 (Embedding)      (None, 100, 100)          12425300  
_________________________________________________________________
global_average_pooling1d_2 ( (None, 100)               0         
_________________________________________________________________
dense_4 (Dense)              (None, 128)               12928     
_________________________________________________________________
dense_5 (Dense)              (None, 32)                4128      
_________________________________________________________________
dense_6 (Dense)              (None, 1)                 33        
=================================================================
Total params: 12,442,389
Trainable params: 12,442,389
Non-trainable params: 0
--


Train on 8000 samples, validate on 42000 samples
Epoch 1/10
8000/8000 [==============================] - 2s 209us/step - loss: 0.6638 - acc: 0.6135 - val_loss: 0.6162 - val_acc: 0.6833
Epoch 2/10
8000/8000 [==============================] - 1s 154us/step - loss: 0.5251 - acc: 0.7530 - val_loss: 0.4650 - val_acc: 0.7840
…
